test_train_detect.pth (torch, 613880 bytes, 8 tensors)

conv1.weight f4 [16, 1, 3, 3]
0	0x3e887ff6	0.26660126
1	0x3e97d6fb	0.29656205
2	0xbda3f169	-0.0800503
3	0x3efc7600	0.49308777
4	0x3e24872a	0.16067186
5	0xbeeddf9d	-0.46459666
6	0x3d708602	0.05872155
7	0xbdfada06	-0.12248616
8	0xbf2e2464	-0.6802428
9	0x3eeb5e5b	0.45970425
10	0x3e636197	0.22205196
11	0x3dc55d16	0.09636895
12	0xbdc65bc2	-0.0968547
13	0x3e109a9d	0.1412148
14	0xbda82469	-0.0821007
15	0xbe86e8cc	-0.26349485
16	0xbe4dddde	-0.20104167
17	0xbeb9981f	-0.36248872
18	0xbe853a66	-0.26021117
19	0xbe688ec9	-0.22710718
20	0x3e7e91dc	0.24860328
21	0xbe80631d	-0.25075617
22	0x3df2b083	0.11850073
23	0x3ebab03d	0.36462584
24	0xbeb0c8d0	-0.34528208
25	0x3d850fc2	0.06497146
26	0x3daa65be	0.08320187
27	0xbe3a5b8d	-0.18198986
28	0x3a0430d5	0.0005042677
29	0xbeb4e4ef	-0.35330912
30	0x3cbb76b8	0.022883758
31	0x3e18445b	0.14869826
32	0xbe654adb	-0.22391836
33	0xbecfd273	-0.40590248
34	0xbebe38cf	-0.37152717
35	0x3e1b1e68	0.15148318
36	0xbe76ccc1	-0.24101545
37	0xbe615258	-0.22004068
38	0xbdd5ba1b	-0.104358874
39	0xbe226408	-0.15858471
40	0x3ec316d4	0.38103354
41	0x3eac86ea	0.3369668
42	0x3d47e015	0.048797686
43	0x3df9c393	0.12195506
44	0x3e428e91	0.18999697
45	0x3eb153cd	0.34634247
46	0x3ec4bf3b	0.38427147
47	0x3ec78c3e	0.38974184
48	0xbe7f83c6	-0.24952611
49	0xbe2f8b4f	-0.17142986
50	0xbda9d2c4	-0.082921535
51	0xbee89a65	-0.45430294
52	0xbe07f6e3	-0.13277774
53	0xbe0b902f	-0.1362922
54	0xbebf1bcf	-0.37325904
55	0x3db3235a	0.08746977
56	0xbc385ca3	-0.011252555
57	0xbe9d3ed4	-0.30711997
58	0xbe676d69	-0.2260033
59	0x3e6e5347	0.23273955
60	0x3ddc311e	0.10751556
61	0x3cdf934a	0.027291913
62	0x3e3cb1de	0.18427226
63	0x3e2f3596	0.17110285
64	0xbeb80142	-0.3593846
65	0xbf1dabc8	-0.6159024
66	0x3e7e6990	0.24844956
67	0xbf0b3927	-0.5438408
68	0xbeb113cf	-0.34585425
69	0xbdc365f9	-0.09540934
70	0x3e9ce67e	0.30644602
71	0x3eab96a6	0.33513373
72	0xbe7d8426	-0.24757442
73	0xbd547711	-0.051871363
74	0x3df5f247	0.12009101
75	0xbe90e9f0	-0.2830348
76	0xbe81cf31	-0.25353387
77	0x3ee62c93	0.44955882
78	0x3ef0fdc8	0.4706862
79	0xbebc04da	-0.3672245
80	0xbeba191b	-0.3634728
81	0x3ec30f90	0.3809781
82	0x3e67c1ab	0.22632472
83	0xbd9e900e	-0.0774232
84	0x3ed7f206	0.42176837
85	0xbe6fca26	-0.23416957
86	0xbdf11890	-0.11772263
87	0x3dccf7db	0.10008212
88	0x3e82bba1	0.25533774
89	0x3b11e216	0.0022260002
90	0x3eb57ae3	0.35445318
91	0x3e5d9b82	0.21641353
92	0xbe6f624a	-0.23377338
93	0xbdd37c97	-0.10326498
94	0x3e0b6f55	0.13616689
95	0xbd913e1d	-0.07091925
96	0x3dde534e	0.10855733
97	0x3df7bff2	0.120971575
98	0xbc9d3d9e	-0.01919442
99	0x3ec5a61b	0.3860329
100	0x3eca0ede	0.39464468
101	0x3e31594a	0.17319217
102	0xbe8538c6	-0.26019877
103	0xbe561146	-0.20905027
104	0x3edc0c2a	0.4297803
105	0xbeea537c	-0.4576682
106	0xbe61a0ff	-0.22034071
107	0xbeb07d45	-0.34470573
108	0x3e07b8fa	0.13254157
109	0xbec84ef7	-0.39122745
110	0xbe0414e5	-0.12898596
111	0xbc8feade	-0.017568048
112	0xbee0b0ed	-0.43884984
113	0x3bf1326a	0.007360746
114	0xbe5aff9f	-0.21386574
115	0xbecb5712	-0.39714867
116	0x3ea9c346	0.33156794
117	0x3d806757	0.062697105
118	0x3eafb062	0.34314257
119	0xbdf03c18	-0.11730212
120	0x3e0c347c	0.13691896
121	0xbe72badb	-0.23704092
122	0xbf1e8f7d	-0.61937696
123	0x3e89ed37	0.26938793
124	0xbea157bb	-0.31512246
125	0xbeeba415	-0.46023622
126	0x3e1628a5	0.14663942
127	0x3cd2bf4e	0.025725987
128	0x3d942663	0.07233884
129	0x3e814346	0.25246638
130	0x3ea4f56d	0.32218495
131	0xbc3b3527	-0.011426247
132	0x3e12766c	0.14302987
133	0xbe43f9a1	-0.19138195
134	0xbf01f75e	-0.5076808
135	0xbe97de99	-0.29662016
136	0x3d6162b8	0.055025786
137	0x3edb99e9	0.42890862
138	0xbe8840f3	-0.26612052
139	0xbe84401e	-0.25830168
140	0xbe80c490	-0.25149965
141	0xbd295996	-0.0413452
142	0xbee08924	-0.4385463
143	0xbd7babb4	-0.061443046

conv1.bias f4 [16]
0	0x3dce2266	0.10065155
1	0xbe8b4684	-0.27202237
2	0x3ced47c9	0.028964894
3	0xbebfa916	-0.3743369
4	0x3e5917c1	0.21200468
5	0xbe9383b3	-0.28811416
6	0x3c851835	0.016246894
7	0xbe7f5d07	-0.24937831
8	0xbe08b053	-0.13348512
9	0xbe77fb4a	-0.24216953
10	0xbd39d7cd	-0.04537182
11	0xbdba6379	-0.09101004
12	0xbe92f6b4	-0.28703845
13	0xbed2da1c	-0.4118203
14	0xbdb017f9	-0.085983224
15	0xbeae64d1	-0.34061292

conv2.weight f4 [32, 16, 3, 3]
0	0xbd30a9fc	-0.04313086
1	0x3cfd49c3	0.030918961
2	0xbd16388f	-0.036675032
3	0x3d31d1c9	0.043412957
4	0xbb70000a	-0.0036621117
5	0xbdd828d7	-0.105546646
6	0xbd61f586	-0.05516579
7	0xbd7b8357	-0.061404552
8	0xbd24326c	-0.04008715
9	0xbcbe5f29	-0.023238735
10	0x3dd5911d	0.10428069
11	0xbd3c4a33	-0.0459692
12	0x3d75dfd9	0.06002793
13	0xbdc2eb6b	-0.09517559
14	0x3c1e11d2	0.009647803
15	0xbd4a9716	-0.049460493
16	0x3d8d08b3	0.06886425
17	0x3da8793f	0.08226251
18	0xbdb93720	-0.090437174
19	0x3d0e70f5	0.034775693
20	0xbc087214	-0.00832798
21	0xbdf933fe	-0.1216812
22	0xbd334e70	-0.043775976
23	0x3d6864d2	0.056736775
24	0xbd206878	-0.03916213
25	0xbdbf53ec	-0.09342179
26	0x3b88b77b	0.004172263
27	0x3c744571	0.014909134
28	0xbdae1397	-0.0849983
29	0x3cbd2417	0.023088498
30	0x3d81f871	0.063462146
31	0x3aff6967	0.0019486368
32	0x3d5f1a0b	0.054468196
33	0xbd5c7bbc	-0.05382894
34	0x3cbfd6a1	0.023417773
35	0x3cfe3f30	0.03103599
36	0xbdd31a22	-0.10307719
37	0xbdca7bfb	-0.09886929
38	0xbde28e5b	-0.110623084
39	0xbdf66210	-0.12030423
40	0xbe0b2d9a	-0.13591614
41	0x3d77ba30	0.060480297
42	0xbc82f7c8	-0.015987292
43	0xbbf9b774	-0.0076207463
44	0xbdea4cd8	-0.11440438
45	0xbd676a13	-0.056497645
46	0xbd072d4f	-0.033002194
47	0xbbda9478	-0.006670531
48	0xbd7f102f	-0.062271293
49	0x3dae848f	0.08521377
50	0xbc0a9fca	-0.008460948
51	0xbd13a99b	-0.03605042
52	0xbd8ae524	-0.06781986
53	0xbcf74ec1	-0.03018892
54	0xbe05ae92	-0.13054875
55	0xbdc88964	-0.0979183
56	0x3d164dbf	0.03669524
57	0xbd868804	-0.06568912
58	0x3c071d26	0.008246696
59	0xbdcc53bf	-0.09976911
60	0xbd18ecb9	-0.03733513
61	0xbd45b91b	-0.048272233
62	0xbd7429d4	-0.059610203
63	0xbd454f68	-0.04817143
64	0xbd393e57	-0.045225468
65	0x3d5d15a8	0.05397573
66	0x3d591f7c	0.05300854
67	0x3bc26ffd	0.00593376
68	0xbd0d0742	-0.03443075
69	0x3dccfc2e	0.10009037
70	0xbdc862d3	-0.09784474
71	0xbcb16962	-0.021656696
72	0xbdde7364	-0.10861853
73	0xbdec81e2	-0.11548211
74	0xbd9dd4ec	-0.07706627
75	0x3cda176a	0.026622493
76	0xbd804ef0	-0.06265056
77	0x3d45c8e2	0.04828728
78	0x3d0e3c78	0.034725636
79	0xbc8279d0	-0.015927225
80	0xbd2db198	-0.042405695
81	0xbcc15ee4	-0.023604818
82	0xbd88875a	-0.06666441
83	0x3be4bc77	0.0069804746
84	0xbc8fc3b5	-0.017549375
85	0xbcf21f4d	-0.029555941
86	0x3cc64f85	0.02420784
87	0x3d47976c	0.04872839
88	0xbbaeea82	-0.005338014
89	0x3d8218ed	0.063524105
90	0xbd842ec3	-0.064542316
91	0xbcb93c25	-0.022611687
92	0xbd57a078	-0.05264327
93	0x3d90cdbd	0.070704915
94	0xbd5bd233	-0.05366726
95	0xbc2bf4b2	-0.010495352
96	0x3dcf5a25	0.101246156
97	0x3d3fc39f	0.04681742
98	0xbccfd771	-0.025371285
99	0x3cf7a034	0.030227758
100	0xbcc5b844	-0.024135716
101	0x3d997823	0.074936174
102	0x3c0d6c10	0.008631721
103	0x3cc6f86e	0.024288382
104	0x3d4a50e0	0.049393535
105	0x3db96bec	0.090537876
106	0x3c772b56	0.015086016
107	0x3db724b8	0.089425504
108	0xbd130111	-0.03588969
109	0xbd10bebf	-0.03533816
110	0x3d63df80	0.055633068
111	0xbdd53efa	-0.104124025
112	0x3cf34262	0.02969474
113	0x3d358ab9	0.04432175
114	0xbd122aad	-0.03568523
115	0xbda3589d	-0.07975886
116	0x3cd0f0a5	0.025505373
117	0xbcc4955d	-0.023997003
118	0xbd5da980	-0.054116726
119	0x3b8e4fd5	0.004343013
120	0xbd4f22ae	-0.050570183
121	0x3d1be39b	0.03805886
122	0x3d2457a8	0.040122658
123	0xbd8f57a2	-0.069991365
124	0xbd297499	-0.04137096
125	0xbdb05f43	-0.0861192
126	0xbdc6bad5	-0.09703604
127	0xbd673d4d	-0.056454945
128	0x3af0b058	0.0018363101
129	0x3ae63474	0.001756324
130	0x3c083e96	0.008315703
131	0xbd59a458	-0.053135246
132	0x3d818095	0.06323353
133	0x3ca0cf09	0.019629972
134	0xbd21cdc9	-0.039502893
135	0xbb43a7d3	-0.002985467
136	0x3c0f1bf6	0.008734694
137	0xbc8ecfe2	-0.01743311
138	0x3c62524a	0.013813565
139	0x3d183f02	0.037169464
140	0xbd6648a4	-0.05622162
141	0xbd8d9e0d	-0.069149114
142	0x3c2e511a	0.010639453
143	0x3d5d96b1	0.05409879
144	0xbdb3c5a4	-0.08777931
145	0xbd355e98	-0.044279665
146	0xbe1763db	-0.14784186
147	0x3c375d9f	0.011191755
148	0xbc8abf67	-0.01693697
149	0xbe21ae73	-0.15789203
150	0xbd94f75f	-0.07273745
151	0xbd31146d	-0.04323237
152	0xbb2f0b7d	-0.0026709728
153	0xbdf0ca12	-0.11757292
154	0x3d8c19f8	0.06840891
155	0x3e216ba3	0.15763716
156	0x3de770fa	0.113008454
157	0xbe352e1e	-0.17693374
158	0x3de8f09c	0.113740176
159	0xbd192ff6	-0.037399255
160	0x3cc3ebb9	0.023916112
161	0x3c6f04d0	0.01458855
162	0xbe0ac8c0	-0.13553143
163	0xbca55aaf	-0.020184843
164	0xbd46b721	-0.04851449
165	0xbdca4a54	-0.09877458
166	0xbdd29316	-0.10281961
167	0xbcfc0f37	-0.030768974
168	0xbdc00d2c	-0.09377512
169	0xbd9c82b5	-0.07642118
170	0xbda64900	-0.081193924
171	0x3dcbfd4c	0.09960422
172	0xbd8d7e00	-0.06908798
173	0xbd515f2a	-0.051116146
174	0xbd30f075	-0.043198068
175	0xbd38b539	-0.045094702
176	0x3d25a0c0	0.040436506
177	0xbda78c69	-0.08181078
178	0xbce1473a	-0.027499784
179	0x3d3cb5f4	0.04607196
180	0xbe24addb	-0.16081946
181	0xbe535b7e	-0.2064037
182	0xbe16aef3	-0.14715175
183	0xbd1acda8	-0.037793785
184	0xbc18140d	-0.009282124
185	0xbe14d072	-0.1453264
186	0xbd10b159	-0.035325382
187	0xbc6f619f	-0.014610677
188	0xbc4d9427	-0.012547529
189	0xbd7ef324	-0.062243596
190	0x3e0246a7	0.12722264
191	0x3e54612f	0.20740198
192	0xbcaefb4c	-0.021360062
193	0x3ceb65e7	0.028735114
194	0x3e0855d3	0.1331399
195	0xbcf443a7	-0.029817415
196	0x3d9073f0	0.07053363
197	0x3e014d92	0.12627247
198	0xbc3e8deb	-0.011630516
199	0xbde0cfd7	-0.10977142
200	0xbdf8accb	-0.12142333
201	0x3b86e477	0.0041165906
202	0xbd7b509a	-0.061356165
203	0xbe0495c6	-0.12947759
204	0xbc6180df	-0.013763635
205	0xbe27cd3b	-0.16386883
206	0xba9302be	-0.0011216027
207	0x3d2270eb	0.03965847
208	0xbaa80a3c	-0.0012820433
209	0x3e10675f	0.14101933
210	0x3cdde222	0.027085368
211	0xbd9bf188	-0.07614428
212	0x3c21ce21	0.009875805
213	0xbd96341c	-0.07334158
214	0xbe43a4f3	-0.19105892
215	0x3d10bcd6	0.035336338
216	0xbddb407c	-0.10705659
217	0xbde411a1	-0.11136175
218	0x3d437bbf	0.047725435
219	0xbcc11f22	-0.023574416
220	0xbcbc3b8c	-0.022977613
221	0x3d43bb80	0.047786236
222	0xbcc2d149	-0.023781436
223	0xbdf1b80d	-0.11802683
224	0xbc14023d	-0.009033737
225	0x3cbdc84e	0.023166802
226	0xbceda51a	-0.02900939
227	0xbd631324	-0.055438176
228	0x3caa3706	0.02077819
229	0xbde2c0d1	-0.11071933
230	0xbd9d945b	-0.07694312
231	0x3d243b9e	0.040095918
232	0x3ca02c52	0.019552384
233	0xbc0c9fd0	-0.008583024
234	0xbd1d3225	-0.0383779
235	0xbda6d8be	-0.08146809
236	0x3c9b37d8	0.018947527
237	0x3d34e6e9	0.044165526
238	0xbd9b5275	-0.07584087
239	0xbd98e60a	-0.074657515
240	0x3dd03dba	0.101680234
241	0x3daf2a35	0.08552972
242	0xbdabf52f	-0.083963744
243	0xbc8f64ab	-0.017504057
244	0x3e259db9	0.16173448
245	0x3e8ccb12	0.2749868
246	0xbe022500	-0.12709427
247	0xbe4b4bee	-0.19853184
248	0xbc96ce77	-0.018408997
249	0xbd7aceeb	-0.06123249
250	0xb9ae9a0c	-0.0003330264
251	0x3c3f008c	0.011657845
252	0xbd052384	-0.032504573
253	0xbc8cf8c0	-0.017208457
254	0x3d83c812	0.06434645
255	0x3d8f8620	0.07008004

conv2.bias f4 [32]
0	0x37359a1b	1.0824321e-05
1	0xbe3eaf14	-0.18621475
2	0xbe0d32d7	-0.13788925
3	0xbe1d9a01	-0.15390779
4	0xbd93c161	-0.072146185
5	0xbd2e41c6	-0.042543195
6	0xbe7fc38f	-0.24976943
7	0x3cac5e6e	0.021041121
8	0xbccc87cf	-0.024967102
9	0xbe669d7a	-0.2252101
10	0xbd3870c0	-0.0450294
11	0xbd0b42fe	-0.033999436
12	0xbd03db0b	-0.032191318
13	0xbde46e2a	-0.111538246
14	0x3d21d280	0.03950739
15	0x3e3caea7	0.18426
16	0x3e0c63a6	0.13709888
17	0xbd08aef8	-0.03336999
18	0xbe7e2dad	-0.24822111
19	0x3da9c927	0.0829032
20	0x3bb995e0	0.0056636184
21	0x3d89060c	0.066906065
22	0xbdbc3adc	-0.09190914
23	0xbd9b3de1	-0.07580162
24	0xbe318ea4	-0.1733957
25	0xbd111a15	-0.035425264
26	0x3d283de3	0.041074645
27	0xbdad165b	-0.084515296
28	0xbe885771	-0.26629212
29	0xbd80c37b	-0.06287285
30	0xbd60f386	-0.054919742
31	0xbe7a50ef	-0.24444936

fc1.weight f4 [128, 1152]
0	0x3c69539a	0.014241124
1	0xbbae29fc	-0.0053150635
2	0x3c90de8a	0.01768424
3	0xbc82763a	-0.015925515
4	0xbc8dc43a	-0.017305482
5	0x3c507890	0.012724057
6	0x3ca34c40	0.01993382
7	0x3ad39c5b	0.001614462
8	0x3cb1f58b	0.02172353
9	0xbc485685	-0.012227659
10	0xbc101269	-0.008793452
11	0x3c9b738f	0.018976001
12	0xbc311e55	-0.010810454
13	0xbc12d081	-0.008960844
14	0x3c33cc40	0.01097399
15	0xbbb4b917	-0.0055152285
16	0xb937b992	-0.0001752137
17	0xbd0d7769	-0.034537707
18	0xbccc3f11	-0.024932416
19	0xbb482975	-0.0030542288
20	0x3c364108	0.011123903
21	0xbcf7c446	-0.030244958
22	0xba2c0800	-0.00065624714
23	0xbcc288ec	-0.02374693
24	0x3cbb1533	0.022837257
25	0x3cbaed34	0.022818185
26	0x3c5986e9	0.013276794
27	0xbcabcb30	-0.02097091
28	0x3c5b40d5	0.013382156
29	0x3c95068d	0.0181916
30	0x3ccd6481	0.025072338
31	0xbbcda417	-0.0062756645
32	0xbcd20dae	-0.025641289
33	0x3d0f3c09	0.034969363
34	0x3ce61bca	0.028089423
35	0xba966283	-0.001147345
36	0x3b016ecd	0.001974988
37	0xbc4836e1	-0.012220115
38	0x3c867a1b	0.016415646
39	0xbc7ed0ca	-0.015552709
40	0xbcb140e4	-0.021637388
41	0x3b0d3785	0.0021547985
42	0x3a85719c	0.0010180953
43	0xbcfc173e	-0.030772801
44	0x3cb5d1e6	0.022194814
45	0x3c5fcc03	0.01365948
46	0xbca639d2	-0.020291243
47	0x3cb00b3a	0.021489728
48	0x3cbcd325	0.0230499
49	0xbcf35db0	-0.02970776
50	0x3bb08a1e	0.0053875586
51	0x3c5fc334	0.01365738
52	0xbb03e7a2	-0.0020127078
53	0x3a28d7c8	0.00064408453
54	0xbd034672	-0.032049604
55	0xbcfe5c21	-0.03104979
56	0xbc5e5c45	-0.013571803
57	0xbc8cfc1b	-0.017210057
58	0xbc4c8655	-0.012483199
59	0x3bd6ec99	0.0065589664
60	0x3ba2697b	0.004956422
61	0x3c83cd93	0.016089236
62	0xbcd242df	-0.025666652
63	0x3c26d194	0.010181803
64	0x3d10dbe6	0.03536596
65	0x3ccf55c1	0.025309445
66	0xbbc38a41	-0.005967409
67	0xba7c9389	-0.00096350216
68	0x3cc12814	0.023578681
69	0x3c4997f9	0.0123042995
70	0xbc4222ce	-0.011849118
71	0x3c941014	0.018074073
72	0x3b0c7dc3	0.0021437265
73	0x3c39d920	0.011343271
74	0x3bdff58e	0.0068346923
75	0xbcabce75	-0.02097247
76	0xbd09b25c	-0.033617362
77	0xbcc5be2a	-0.024138529
78	0xbc708703	-0.014680627
79	0xbd0fbdc9	-0.035093103
80	0xbbcb59b4	-0.006205762
81	0xba5e8e45	-0.0008489828
82	0xbc327e87	-0.010894424
83	0x3c93960f	0.01801589
84	0x3c06e016	0.008232137
85	0xbc9f45dc	-0.019442491
86	0x3bd760dc	0.006572826
87	0xbc804075	-0.015655736
88	0x3bdb8258	0.006698888
89	0xbcfe3fb4	-0.031036235
90	0xbd0a3067	-0.033737566
91	0x3a208a6f	0.0006124144
92	0xbc492616	-0.012277147
93	0xbbe6ae1c	-0.0070397984
94	0xbcf763d6	-0.030198973
95	0xb8f28914	-0.00011564992
96	0xbb291966	-0.0025802492
97	0xbb55139d	-0.003251291
98	0xbcf2b479	-0.029627072
99	0xbc9a9d1f	-0.01887375
100	0xbc72ff0f	-0.0148313185
101	0xbc7b6814	-0.015344638
102	0xbcf026ae	-0.029315319
103	0xbd016a7a	-0.031595685
104	0xbcc43765	-0.023952195
105	0xbce0bf35	-0.027434925
106	0x3c9bc934	0.01901684
107	0x3c3ddfd2	0.011589007
108	0x3c2ba23c	0.010475691
109	0xbc74053c	-0.014893826
110	0x3c510a3b	0.012758787
111	0xbc6b480a	-0.014360437
112	0x3bff5fc8	0.0077934004
113	0xbd0fdc8f	-0.03512245
114	0xba7a55ea	-0.00095495454
115	0xbc5654b7	-0.013081721
116	0x3c88a686	0.016680967
117	0xbb873500	-0.004126191
118	0xbce1f0a5	-0.027580569
119	0xbc8ecd4c	-0.017431878
120	0xbca30f6e	-0.019904818
121	0xbb9a2fde	-0.0047054132
122	0xbaba3631	-0.0014206824
123	0xbbde6f82	-0.006788195
124	0x3c5ee732	0.013604926
125	0xbb94c144	-0.0045396406
126	0xbce330bc	-0.0277332
127	0x3c84b577	0.01619981
128	0xbc27d791	-0.010244266
129	0xbbb93821	-0.005652443
130	0xbcfce1c4	-0.030869372
131	0x3b6b031c	0.0035860008
132	0x3c5db102	0.0135309715
133	0xbc036291	-0.0080191055
134	0x3bb5548c	0.0055337604
135	0xbbeb2c14	-0.0071768854
136	0xbc8a638d	-0.016893173
137	0x3cb3894d	0.021916056
138	0xbc15977e	-0.009130357
139	0xbcfc644a	-0.03080954
140	0xbbebf9c8	-0.007201407
141	0xbc982b40	-0.01857531
142	0xbb51abc8	-0.0031993259
143	0xbd0e941f	-0.034809228
144	0x3b8de1f5	0.0043299147
145	0xbc9c1972	-0.019055102
146	0x3c2b6f07	0.010463483
147	0x3c239c49	0.009985992
148	0xbd01fdb8	-0.031736106
149	0xbb9aba1c	-0.004721893
150	0xbc1f4695	-0.009721418
151	0xbb02d1a3	-0.001996138
152	0x3c9f5501	0.019449713
153	0xbc95a92b	-0.018269142
154	0xbc8bb740	-0.017055154
155	0x3bed0fe9	0.0072345627
156	0xbc8be497	-0.017076774
157	0x3c8238be	0.015896197
158	0xbce623f7	-0.028093321
159	0xbc87f0de	-0.016594347
160	0xbcf8854d	-0.030337
161	0xbc10679e	-0.008813767
162	0x3bd3d226	0.0064642606
163	0x3c088bbf	0.008334099
164	0xbbd65170	-0.00654047
165	0x38f77808	0.000118002354
166	0xbcf56257	-0.029954119
167	0xbd117782	-0.035514362
168	0x3c365521	0.011128695
169	0xbcea19e1	-0.028576793
170	0x3a456896	0.0007530538
171	0x39e08aef	0.00042828123
172	0x3c644e8a	0.013934741
173	0xbc7bd03a	-0.015369469
174	0xbbb59bf3	-0.0055422722
175	0xbb6feb0f	-0.0036608612
176	0xbbfb409b	-0.0076676137
177	0xbd115402	-0.035480507
178	0xbcc886f4	-0.024478413
179	0xbc4b83c4	-0.012421552
180	0xbb95b960	-0.0045692176
181	0x3ca9dc21	0.020734848
182	0x3b1fb9af	0.002437215
183	0x3c3c3c00	0.0114889145
184	0xbc5778ca	-0.013151357
185	0xbc1a9c47	-0.0094366735
186	0x3c80223b	0.015641322
187	0x3c3ce844	0.011529986
188	0x3c630ecf	0.013858511
189	0xbc62e831	-0.013849304
190	0x3c49c929	0.012316027
191	0x3c8e9289	0.017403858
192	0xbc5800fc	-0.013183828
193	0xbca0e0c8	-0.019638434
194	0xbbbc8180	-0.0057527423
195	0xbcfd80fd	-0.030945295
196	0xbd0230a6	-0.031784676
197	0xbc7f8a37	-0.015596918
198	0xbcbb1740	-0.022838235
199	0xbbd5fa2f	-0.0065300683
200	0xbc856f08	-0.016288295
201	0xbb5a323c	-0.0033294102
202	0xbca2d7e2	-0.019878332
203	0xbc1ed4fc	-0.009694334
204	0x3cb3ce23	0.02194888
205	0xbcbacbfc	-0.022802345
206	0xbcd49636	-0.025950532
207	0x3ac3f565	0.0014950453
208	0x3c11f1e4	0.008907769
209	0x3c8d2159	0.017227815
210	0xbc89a130	-0.016800493
211	0xbc7fb9a4	-0.015608225
212	0x3caf3b20	0.021390498
213	0xbcdae208	-0.026719108
214	0x3c8b19b3	0.016980028
215	0xbce74095	-0.028229037
216	0x3c83e479	0.016100155
217	0xbcd78a69	-0.026311116
218	0x3c3dde83	0.011588695
219	0xbcdca196	-0.026932519
220	0xbc6b5e43	-0.014365735
221	0xbc5bffe2	-0.013427706
222	0x3c4d432f	0.012528225
223	0x3c279e7c	0.010230657
224	0xbbc6551f	-0.0060526277
225	0xbb16150d	-0.002290073
226	0x3ca04621	0.01956469
227	0xbca77deb	-0.020445785
228	0xbcc84025	-0.024444649
229	0xbd15ae4f	-0.036543187
230	0x3ad5c098	0.0016308008
231	0xbcc77320	-0.024346888
232	0xbc775b50	-0.015097454
233	0x3b1d3c96	0.002399241
234	0xbd0c629c	-0.03427373
235	0x3c84e74e	0.016223576
236	0x3bfc26a9	0.0076950383
237	0xbc152eda	-0.009105409
238	0xbccbdde5	-0.024886081
239	0xbcba2ead	-0.022727335
240	0xbc6c36b4	-0.014417339
241	0x3c269b8a	0.010168919
242	0xbc8610bf	-0.016365407
243	0xbcb09d9e	-0.021559533
244	0x3b9e938a	0.0048393654
245	0xbc0eafcf	-0.008708908
246	0x3cf0c4f9	0.029390799
247	0x3cedf95d	0.02904957
248	0xbc681508	-0.0141651705
249	0x3c8fb0a5	0.017540285
250	0x3bd8e03a	0.0066185268
251	0x3cab06c6	0.020877253
252	0x3c57f608	0.013181217
253	0xbcaf0ac0	-0.02136743
254	0x3c5a50a1	0.0133248875
255	0x3b0dfa39	0.0021664037

fc1.bias f4 [128]
0	0x3b0e4b23	0.0021712265
1	0xbcdee50b	-0.027208826
2	0xbba427a7	-0.0050096097
3	0xbccd00a9	-0.025024729
4	0xbd7d2927	-0.061806824
5	0x3e32f6e5	0.17476995
6	0xbc04a514	-0.008095998
7	0xbca2f089	-0.019890087
8	0xbd581e78	-0.052763432
9	0x3b41f13a	0.0029593245
10	0xbdb79432	-0.08963813
11	0xbd00dc4a	-0.031460084
12	0xbcabb933	-0.020962333
13	0xbd7a7010	-0.061142027
14	0xbd42cd6c	-0.047559187
15	0x3c544689	0.01295627
16	0xbc203dcf	-0.009780361
17	0xbbe48569	-0.0069739115
18	0x3c48a634	0.012246657
19	0xbd507398	-0.05089149
20	0xbcdd3cab	-0.027006468
21	0xbd425088	-0.04744008
22	0xbd0b4d07	-0.034009006
23	0x3c7c0532	0.015382098
24	0xbc9239e9	-0.01784988
25	0x3e108670	0.14113784
26	0x3bcfb62a	0.0063388543
27	0xbdba5b69	-0.09099466
28	0x3e0b63df	0.13612317
29	0xbdab85e3	-0.08375146
30	0xbd118a9b	-0.035532575
31	0xbc89e154	-0.016831078
32	0xba2d1bac	-0.00066035497
33	0xbcf06571	-0.029345246
34	0xbd4e98be	-0.050438635
35	0x3df576e6	0.11985569
36	0xbc7bc364	-0.015366409
37	0xbcbd8da7	-0.023138834
38	0x3c45100e	0.0120277535
39	0xbaad24b2	-0.0013209789
40	0xbd884129	-0.06653053
41	0x3e0be20d	0.1366045
42	0xbd8daeee	-0.06918131
43	0x3c64e787	0.013971216
44	0xbd30bb26	-0.04314723
45	0x3e384e9b	0.17998736
46	0x3b09951e	0.0020993422
47	0xbcbd7716	-0.023128074
48	0xbc62cc35	-0.013842632
49	0xbdc12059	-0.09429998
50	0x3e24f792	0.16110066
51	0xbd13ad25	-0.036053795
52	0xbd39ef7b	-0.045394402
53	0x3dd35bd3	0.103202485
54	0x3c3e1652	0.011602001
55	0xbd5f5030	-0.054519832
56	0xbd8f93b7	-0.07010596
57	0xbd098561	-0.033574466
58	0x3e5c6788	0.21523869
59	0x3e628c9d	0.22123952
60	0xbd382b14	-0.044962958
61	0xbc717e68	-0.01473961
62	0xbbc2560c	-0.0059306677
63	0xbcb6a82f	-0.022296993
64	0xbd35eec1	-0.044417147
65	0xbd9a9f48	-0.07549912
66	0xbc962044	-0.018325932
67	0xbd8ff955	-0.07029978
68	0xbe034629	-0.12819733
69	0xbcce02db	-0.025147846
70	0xbcdc4b4e	-0.026891377
71	0xbd0c038d	-0.034183074
72	0xbcfd7c6f	-0.030943124
73	0xbcceddc4	-0.02525223
74	0xbd238ffb	-0.039932232
75	0x3defc569	0.11707575
76	0xbd1082e0	-0.035281062
77	0xbd7e0638	-0.06201765
78	0xbd1b5b1d	-0.03792869
79	0xbbdc5664	-0.0067241658
80	0xbcef9a94	-0.029248513
81	0x3e00ba30	0.12571025
82	0x3be165f3	0.0068786084
83	0xbbd34f74	-0.0064486805
84	0xbcd85484	-0.026407488
85	0xbd9fce8f	-0.0780307
86	0x3e530203	0.20606236
87	0x3c8a2fd6	0.016868513
88	0xbd20db8b	-0.039271872
89	0xbc290850	-0.010316923
90	0xbcceeb14	-0.025258578
91	0xbbadb3b5	-0.0053009638
92	0x3bef3617	0.007300149
93	0xbd1f4a52	-0.038889237
94	0xbce8152e	-0.028330412
95	0xbc50c979	-0.012743347
96	0xbd247168	-0.040147215
97	0xbd541a4f	-0.051782902
98	0x3dd216cc	0.102582544
99	0x3e2d18eb	0.16904037
100	0x3dc7b635	0.0975155
101	0xbdc95ecc	-0.09832534
102	0xbda1c303	-0.07898524
103	0x3ba9d554	0.0051829014
104	0xbcb738e5	-0.022365997
105	0xbc6feefb	-0.01464438
106	0xbd731320	-0.05934441
107	0xbb87bf13	-0.004142651
108	0xbd05fc2c	-0.032711193
109	0xbc3383a8	-0.010956682
110	0x3ca72a98	0.020406052
111	0xbc4310df	-0.011905878
112	0xbda9e3f7	-0.08295434
113	0xbd85fe90	-0.065426946
114	0xbd9d2665	-0.07673339
115	0xbdaaf75d	-0.08347962
116	0x3e181aa9	0.1485392
117	0x3e3872e6	0.1801258
118	0xbd2f9dbc	-0.042875037
119	0xbaefbee7	-0.0018291146
120	0xbd0dcf94	-0.03462179
121	0xbc91176d	-0.017711366
122	0x3e1e0e71	0.15435196
123	0xbcd42d0b	-0.025900384
124	0xbd916062	-0.07098462
125	0xbd47b2f9	-0.048754666
126	0xbd85a0f1	-0.06524838
127	0x3bce785e	0.00630097

fc2.weight f4 [2, 128]
0	0xbc80d7bc	-0.01572787
1	0xba6b22f1	-0.0008969745
2	0x3d7f755c	0.062367782
3	0x3ca6efb3	0.02037797
4	0xbd0d468b	-0.034491103
5	0x3ef99d58	0.48752856
6	0xbf388eeb	-0.72093076
7	0xbcb8deb7	-0.022567136
8	0xbef096d9	-0.46990088
9	0xbd60a744	-0.054847017
10	0xbeb4c7e6	-0.3530876
11	0xbc6a7395	-0.0143097835
12	0xbbc72850	-0.0060778037
13	0xbdf91e86	-0.12164025
14	0xbe974cff	-0.2955093
15	0xbd4d2f04	-0.050093666
16	0xbce0b28d	-0.02742889
17	0x3be775c3	0.007063599
18	0xbcfec3e4	-0.031099267
19	0xbedfc46a	-0.4370454
20	0x3da116a4	0.078656465
21	0xbd257dfe	-0.04040336
22	0x3c8e749f	0.017389594
23	0xba814005	-0.0009860998
24	0xbd038676	-0.032110654
25	0x3d796493	0.06088693
26	0xbcbcd632	-0.023051355
27	0xbc5ac11d	-0.013351706
28	0x3d895d22	0.06707217
29	0xbe16b501	-0.14717485
30	0xbd13e6fb	-0.036108952
31	0x3c99e9b2	0.018788192
32	0xbc8953d7	-0.01676361
33	0x3ca96b24	0.020680971
34	0xb83a9730	-4.448666e-05
35	0x3db8154f	0.08988439
36	0xbd6aafb9	-0.05729649
37	0xbe0fd9e5	-0.14047964
38	0x3bf57fdd	0.007492049
39	0xbdaa90b7	-0.083283834
40	0xbef0d73c	-0.4703921
41	0x3d2f864c	0.042852685
42	0xbe5abd12	-0.21361187
43	0x3a1ce080	0.0005984381
44	0x3d91f436	0.07126658
45	0x3dbd6d3e	0.09249352
46	0x3d8dc371	0.06922043
47	0x3ca3d101	0.019997122
48	0xbd8449ce	-0.064593896
49	0xbe6fb1e3	-0.23407702
50	0x3dddeff4	0.10836783
51	0xbd3cc79e	-0.046088807
52	0xbe316b9e	-0.17326209
53	0x3c5e40ec	0.013565283
54	0xbd745f78	-0.05966136
55	0xbdd027de	-0.10163854
56	0x3d6f15f5	0.05837055
57	0xbcdebb69	-0.027188974
58	0x3e52fc9f	0.2060418
59	0x3ec145ee	0.37748665
60	0xbd264c60	-0.04060018
61	0x3d927d99	0.07152862
62	0x3cc01c80	0.02345109
63	0x3cf0dd9b	0.029402545
64	0xbeb64ae0	-0.35604
65	0xbd6cf0b3	-0.057846736
66	0xbc1ad1c7	-0.009449429
67	0xbd6b6d5c	-0.05747734
68	0xbf445c10	-0.76702976
69	0xbce97a5d	-0.02850073
70	0xbe8316d4	-0.25603354
71	0x3d7ed637	0.06221601
72	0x3d54db44	0.05196692
73	0x3c482395	0.012215515
74	0xbe3f7c38	-0.1869973
75	0x3b6e1a23	0.0036331497
76	0x3b07a5fa	0.0020698295
77	0xbaee249d	-0.0018168871
78	0xbdb46a10	-0.08809292
79	0x3d2b9dec	0.041898653
80	0x3d05042f	0.032474693
81	0xbcb4eb85	-0.02208496
82	0xbd818124	-0.0632346
83	0xbdb1a6b7	-0.086743765
84	0x3caed08f	0.021339683
85	0xbe1be4a5	-0.1522394
86	0x3f014e16	0.50509775
87	0x3cd6df8b	0.02622964
88	0x3cacff08	0.021117702
89	0xbd97f909	-0.074205466
90	0xbda6283e	-0.08113144
91	0xbc012dd1	-0.007884459
92	0x3d5548fc	0.052071556
93	0x3d5e3624	0.05425085
94	0x3d7923dc	0.060825214
95	0x3d0de06c	0.034637854
96	0xbea5b376	-0.3236348
97	0xbea3443b	-0.31887993
98	0x3e9594ee	0.29215187
99	0x3e26c26e	0.16285107
100	0x3ced7bce	0.028989699
101	0x3c101541	0.00879413
102	0xbeb9a11f	-0.36255738
103	0x3cb5e1ad	0.022202337
104	0xbe3f012c	-0.18652791
105	0xbd532b27	-0.051554825
106	0xbc0b14aa	-0.008488813
107	0xbebb4a7e	-0.3658027
108	0xbd2c3d04	-0.042050377
109	0x3d4c5913	0.049889635
110	0x3ca20378	0.019777045
111	0x3c172fa2	0.009227665
112	0xbde2ea72	-0.11079873
113	0xbe77ece8	-0.24211466
114	0xbe1853e6	-0.14875755
115	0xbd7f3cd6	-0.062313877
116	0x3df946fd	0.12171743
117	0x3e032be2	0.12809709
118	0xbcfbe798	-0.030750081
119	0x3d453564	0.04814662
120	0xbd832d30	-0.06405103
121	0xbe6ac622	-0.22927144
122	0x3d537d2d	0.05163305
123	0xbd746530	-0.059666812
124	0xbd0954c3	-0.0335281
125	0xbd94d445	-0.0726705
126	0xbd829e82	-0.06377889
127	0x3c4e5665	0.01259384
128	0xbd92ec00	-0.0717392
129	0x3bf4d78b	0.007471984
130	0xbd662232	-0.056184955
131	0xbcb797af	-0.022411196
132	0xbc77712d	-0.015102667
133	0xbef25421	-0.4732981
134	0x3f34e437	0.7066073
135	0xbd89c965	-0.06727866
136	0x3ea6ca9b	0.3257645
137	0xbd4b5fc7	-0.049651887
138	0x3ebca5d1	0.36845258
139	0xbcbf5233	-0.023354625
140	0xbd8a94c4	-0.06766656
141	0x3d548d10	0.05189234
142	0x3e9bfca0	0.30466175
143	0xbcf57e54	-0.029967465
144	0xbd77b704	-0.06047727
145	0xbce24b96	-0.027623933
146	0xbd55ccc2	-0.052197225
147	0x3ef76fd0	0.48327494
148	0x3d9fa5f6	0.077953264
149	0xbbfe9b8f	-0.007770009
150	0xbd9147f1	-0.070938
151	0xbd0bd361	-0.034137134
152	0x3d60f22d	0.054918457
153	0x3bab0d40	0.0052200854
154	0xbd0e1b6c	-0.03469412
155	0x3da85b7a	0.08220573
156	0xbd739803	-0.05947114
157	0x3d4a07e5	0.049323935
158	0x3cd77132	0.026299093
159	0x3ccae7f2	0.024768803
160	0xbd0250f2	-0.031815477
161	0xbcb70b03	-0.022344118
162	0xb9b4ead2	-0.0003450723
163	0xbb99d897	-0.004695009
164	0xbd7e0ccc	-0.062023923
165	0x3e26bed5	0.16283734
166	0xbd5dacf0	-0.054120004
167	0xbd803bf6	-0.06261437
168	0x3eeababd	0.45845595
169	0xbc456e14	-0.01205017
170	0x3e696ef0	0.22796226
171	0xbc3770e3	-0.011196348
172	0x3d66a81d	0.05631267
173	0xbd3cfa02	-0.046136864
174	0x3bc02ff6	0.0058650924
175	0xbcd0990f	-0.025463609
176	0xbd2f3508	-0.042775184
177	0x3ea30e23	0.31846723
178	0xbd50aa9e	-0.050943963
179	0xbd836c3c	-0.064171284
180	0x3dff2df4	0.12459937
181	0xbd53b962	-0.051690467
182	0x3d3ef19a	0.046617128
183	0x3d7989d7	0.06092247
184	0x3d52b51d	0.051442254
185	0x3d6e8c9a	0.058239557
186	0xbeb7ba91	-0.35884526
187	0xbecb7ff0	-0.39746046
188	0x3c19c97e	0.009386418
189	0xbd53dc3f	-0.051723715
190	0xbc1143d9	-0.008866274
191	0xbd83518b	-0.064120375
192	0x3eb20e47	0.34776518
193	0x3d35bde7	0.044370558
194	0xbd96e02c	-0.07366976
195	0x3e3064b8	0.17225921
196	0x3f5469e3	0.8297407
197	0x3dc66fe3	0.096893094
198	0x3ed0bece	0.40770572
199	0x3ccc5523	0.02494294
200	0xbc4ac6ec	-0.012376528
201	0xbd09eb76	-0.03367182
202	0x3e6f9ded	0.23400088
203	0xbd4fd354	-0.050738648
204	0xbcf8548c	-0.030313753
205	0x3da86859	0.08223028
206	0x3cce584a	0.025188584
207	0x3cd05d06	0.025434982
208	0x3c90018c	0.017578863
209	0xbdc1e608	-0.09467703
210	0xbd598383	-0.053103935
211	0xbda216ac	-0.079144806
212	0xbd4226ea	-0.047400393
213	0x3dd4b94a	0.103869036
214	0xbf0f9097	-0.5608
215	0x3ca7411d	0.02041679
216	0xbb489f3b	-0.0030612487
217	0xbcbea815	-0.023273507
218	0xbd4c5a99	-0.04989109
219	0x3b86db92	0.0041155303
220	0xbc8f0c6b	-0.017461976
221	0xbd789736	-0.06069108
222	0x3c8605ea	0.016360242
223	0xbcfc53c4	-0.030801661
224	0x3eaf6835	0.3425919
225	0x3e9ba5a7	0.3039982
226	0xbe4fa268	-0.20276797
227	0xbe8b8902	-0.27252966
228	0xbd27ebe9	-0.040996466
229	0x3e088395	0.13331445
230	0x3e742899	0.23843612
231	0xbbae67a7	-0.005322415
232	0x3e2ca4c6	0.16859731
233	0xbd5ca58b	-0.05386881
234	0x3d918370	0.07105148
235	0x3e907e57	0.2822139
236	0x3d9c102e	0.076202735
237	0x3d457141	0.04820371
238	0xbccd448a	-0.025057096
239	0xbd678692	-0.05652482
240	0x3db8862f	0.090099685
241	0x3e845803	0.25848398
242	0x3e10ea02	0.14151767
243	0x3d386111	0.045014445
244	0xbd0ca643	-0.034338247
245	0xbe03759b	-0.12837832
246	0x3e092ab7	0.133952
247	0xbb9dcea1	-0.004815892
248	0xbda3ea82	-0.08003713
249	0x3e5e6c9b	0.21721117
250	0xbdaf9793	-0.08573832
251	0xbd93cf10	-0.072172284
252	0x3d5af28a	0.05345396
253	0x3e29dd96	0.16588435
254	0x3da8701f	0.082245104
255	0x3c46a269	0.012123683

fc2.bias f4 [2]
0	0x3df83453	0.12119355
1	0xbe42c477	-0.19020258
